Data/TCN Model Files/tcn_ckpt-20251105-172242-d2fc8c.pt (torch, 166016 bytes, 18 tensors)

convs.0.weight f4 [32, 9, 9]
00000000: cbaf 4f3e 3636 af39 fea1 20bd e616 e8bc
00000010: 8485 c63c b939 8fbd 8bfc d53d e3fa 7bbd
00000020: 03f3 babb b2e2 b1bd 586d f9bb d95b 2a3d
00000030: b3a9 fcbd 01f7 d1bd 2523 2d3d 4987 873d
00000040: de80 bc3d 4a65 65bd a892 94bd 1b04 bdbd
00000050: 1463 5fbd f234 9e3d 4cb0 30bd 2abb 133e
00000060: 0490 e93d 8c91 a8bc dec0 e33d 4bcf c1bd
00000070: 76ef b5bd 3cb0 5abd 289b acbc 4640 8c3d
00000080: eafd 653d 60a6 3fbd e206 bbbc de47 843d
00000090: 95b0 5c3d dde5 03bd 841b 98bd 8884 c1bd
000000a0: 13b5 953b 2744 67bc dddc b53d e3e3 a7bd
000000b0: 5a73 82bb 5037 43bd a266 52bd defc f8bd
000000c0: 1b9b 95be 677b 2dbe b12e 21be 23e4 15be
000000d0: 3ea7 c4bd 3fe4 b1bd a970 d7bd d3df 22bd
000000e0: 5948 92bd 5462 81bd 60b1 5f3d 273e d6bd
000000f0: d4b2 d0bd 1863 793c df52 87bd 84c3 9d3d
00000100: 49df 9cbb adc6 873d 6433 db3c cb42 0a3d
00000110: f08b 293d ecd3 4d3d d127 2abd 9841 1fbd
00000120: 461f 553d 587a 043e fe15 8fbd d386 a83c
00000130: 2089 3e3d 3854 1cbc 7986 b7bd 2d8b 75bd
00000140: 4883 4fbd f8e3 a93c 99a4 f73d 9c75 cc3d
00000150: 9fda 3f3e 46ea a63c 8d78 0cbe 472a d5bd
00000160: 284c 62bd cec2 00be 889d 4c3d e48f d83b
00000170: 23e7 503d d4f8 c93c 5f22 c33d 53e0 d6bd
00000180: 328b d0bd 78cd 3abb 7a59 3bbd 5b78 37bd
00000190: 0a2a 1c3c 626a cdbd 536f ce3c 106e 82bd
000001a0: 7f39 973d 7453 18bd 572d 6ebd 704a 8dbc
000001b0: b7d1 7dbb 3a2f dc3d 96b7 b33d 2652 0b3e
000001c0: 96c9 063e 651f 153e 0978 093e 9b95 9fbc
000001d0: 5c4b 65bd 8e5f 783d ad7e c7bc 600a cd3d
000001e0: 5a4f 9e3d d9e4 41bc 6ef3 e83c 9af3 b4bc
000001f0: 513f 173d 288a a9bd 8448 773d 322e c93d
00000200: 9617 a03d 8fdf d23c c822 dcbb 7b79 39bc
00000210: 6486 8dbd b964 c0bd 1967 dfbd 6791 62bd
00000220: 0a8e 6a3d b6dc 763d 5332 d03d 9ffa 503d
00000230: 3d96 82bd 1304 bdbc 4912 023d 5e86 703b
00000240: dd12 a83c 5380 4dbd c4fc 4bbd 5071 57bd
00000250: 80ef 523d 3382 763d 6ceb 2f3b 4b5c be3d
00000260: b21b c43c 0bc5 933d 2240 abbd 2ca7 483d
00000270: dc9b 573d d4d4 6cbd c677 9e3c 4674 fd3d
00000280: 73e7 f5bc 57ee 493d 736e 913c c3aa 2a3e
00000290: bdd8 173e 3a4b 143e aaab ed3d 0424 06bd
000002a0: d67d 1f3e 0670 e13d 9afc 213e fc20 05bd
000002b0: f595 af3d 194d d43d 5fb9 82bd b658 1cbd
000002c0: 5142 64bd ff4a 3e3d 5317 d83d 5f7f 8bbd
000002d0: 6faa b3bc 5fae 50bd 6908 8d3c bf44 dd3d
000002e0: de7d 48bd fb6b 393c faa1 293b 737e 19bc
000002f0: 9c63 d43d cad1 7d3d 8765 d5bc dafb e33d
00000300: 0bd1 1e3b 4bbd 40bd 99cc e63d a119 863d
00000310: b4eb 58bd 7384 153e 051e 91bd d057 103c
00000320: f7ab de3d 6626 86bd f3e7 01b9 79e9 4c3b
00000330: 57d5 7ebd 0ba4 17bd c760 453d 25a8 5ebd
00000340: 074d 86bd 7879 94bd b167 a93d 88c9 08bd
00000350: 7074 cc3d 0b8b ecbb ead3 023e bb3d 263e
00000360: 3689 bbbc ce9f ffbc 5a57 49bd 7061 c3bd
00000370: f161 593c f8f3 5bbd 70da 3a3d e0fb 173d
00000380: 7a27 d6bd f646 883d b079 bcbd 083f 1fbd
00000390: 17d4 753c 3dd2 be3c f57b d8bc 3188 e93c
000003a0: b777 56bd dbc6 be3d f57e 7b3d a70a 07bd
000003b0: 88b9 013e 4700 57bd 0f53 fc3b 3c46 433d
000003c0: 7cf9 b4bd 47fd 903d 274f d5bd 98c1 9ebd
000003d0: a0be bdbd 8685 8abd 8ef0 e5bc 748d aa3d
000003e0: a14e aabd 6eba 923d 7bc2 48bd 6e64 bbbd
000003f0: 6e23 bc3d 25fe 05bd 1ba8 dabd 6e01 41bd
0.20281903 0.0003341899 -0.039216988 -0.028331231 0.024233587 -0.069934316 0.104485594 -0.06151856
-0.005705239 -0.08685817 -0.0076119117 0.0415915 -0.12337055 -0.102521904 0.042269845 0.066176005
0.09204267 -0.0560048 -0.07254535 -0.09229299 -0.054537848 0.07724942 -0.04313688 0.14426866
0.11404422 -0.020577215 0.11120771 -0.09463366 -0.08883564 -0.053390726 -0.021070078 0.06848197
0.056150354 -0.046789527 -0.02283043 0.0645902 0.05387934 -0.032201637 -0.07427123 -0.094491065
0.004568705 -0.01411537 0.08880017 -0.08197763 -0.003981036 -0.047660172 -0.05136741 -0.121576056
-0.292199 -0.16941606 -0.15740468 -0.14637809 -0.096022114 -0.086861126 -0.10519535 -0.039764237
-0.071427055 -0.06317583 0.054612517 -0.10461073 -0.10190359 0.01522138 -0.06607603 0.07703307
-0.00478736 0.06629691 0.026757903 0.033755105 0.04139322 0.050250933 -0.041541878 -0.038880914
0.052031778 0.12937295 -0.069866166 0.020572102 0.04651749 -0.009541564 -0.089611955 -0.05994718
-0.05066231 0.020738587 0.120919414 0.0998337 0.18735741 0.020375382 -0.13717861 -0.104084544
-0.05524841 -0.12574312 0.04995492 0.00660895 0.05100168 0.024654783 0.0952804 -0.10492005
-0.101827994 -0.0028503817 -0.04573963 -0.044792514 0.009531507 -0.100300565 0.025199568 -0.06368649
0.073840134 -0.037188962 -0.05814871 -0.017247409 -0.0038729736 0.10751195 0.087752506 0.13605556
0.13162836 0.14562757 0.13424696 -0.019480517 -0.05598007 0.060638003 -0.024352396 0.100117445
0.07729979 -0.011834347 0.028436389 -0.022088815 0.036925618 -0.08278304 0.06037189 0.09823264
0.07816999 0.025741367 -0.0067180134 -0.011320467 -0.069103986 -0.09394211 -0.10908336 -0.055314448
0.057264365 0.06026908 0.101658486 0.05102026 -0.06376312 -0.023073232 0.03175572 0.0036701183
0.020516807 -0.050171208 -0.049801603 -0.052598298 0.051497936 0.06018276 0.0026843203 0.09294947
0.023938987 0.07215317 -0.08361842 0.048987553 0.052638873 -0.057820156 0.019344222 0.12375693
-0.03001759 0.049299564 0.017752862 0.16666703 0.14828773 0.14481822 0.11605008 -0.03274919
0.15575346 0.11007695 0.15819016 -0.03250216 0.08573524 0.10366268 -0.06383013 -0.03817054
-0.055727307 0.04645824 0.10551324 -0.068114035 -0.021931855 -0.050947543 0.017215924 0.10804128
-0.04894816 0.011317248 0.00258839 -0.009368527 0.103705615 0.06196765 -0.026049389 0.11132021
0.0024233486 -0.047055524 0.11269493 0.06547857 -0.05295916 0.14601307 -0.07085804 0.008809999
0.108726434 -0.06550293 -0.00012388806 0.003126709 -0.062215175 -0.037021678 0.048187997 -0.054359574
-0.065576605 -0.07249731 0.08271731 -0.03339532 0.09983146 -0.0072187237 0.12776151 0.16234486
-0.022892576 -0.03120413 -0.04915557 -0.09540069 0.01326798 -0.053699464 0.045618474 0.03710544
-0.10456748 0.0665416 -0.092028975 -0.03887847 0.015004179 0.023293609 -0.026426295 0.028507324
-0.052360263 0.093152724 0.061400373 -0.032969143 0.12668431 -0.0524905 0.007700331 0.047674403
-0.08836648 0.07079559 -0.10415488 -0.07751769 -0.092648745 -0.06763749 -0.028068807 0.08327761
-0.083157785 0.07164465 -0.049013596 -0.09150015 0.09186445 -0.032713074 -0.10676595 -0.047120504

convs.0.bias f4 [32]
00000000: 868d 253e e467 7f3d 9089 e1bb 2c92 3dbd
00000010: a395 2fbc dc93 3b3d 1acf 9b3c f1e7 713c
00000020: 28fb dfbd 698a 253e 1860 89bd dd97 8e3d
00000030: f186 b83d e6fa b0bc 9a14 473d d4b3 db3d
00000040: ff57 0abe 3429 df3d fad5 923c eaac 53be
00000050: 87a7 313d 4a2a a63d 9ceb d3bc 2914 c33d
00000060: 6263 4fbd 132b 833e aad6 5c3d 3238 673e
00000070: 008d 9ebd 1c62 523d 2aa7 84bd f512 8e3d
0.16167268 0.062354937 -0.006882854 -0.04628198 -0.0107168285 0.045795307 0.019019652 0.014764772
-0.10936576 0.1616608 -0.067077816 0.06962559 0.09010113 -0.021604013 0.04860363 0.10727659
-0.1351013 0.10896531 0.017924298 -0.2067143 0.043372657 0.08113535 -0.025869183 0.095253296
-0.05063189 0.256188 0.053915657 0.2258003 -0.07741737 0.051363096 -0.064771965 0.069372095

convs.1.weight f4 [32, 32, 9]
00000000: 1cdd 653c 2873 a33b dd8c 4e3d 99c3 4f3d
00000010: 990c 343c 9e50 a4bc efb1 b8bd fc13 a4bd
00000020: 10d2 e8bd 596c 393d 3c0a b9bc 32fe d9bc
00000030: 5a4d a2bc 08b2 203d ecc8 6abd 1449 5abd
00000040: f7cd fbbc 26b1 1abd 5d6b 5abc 83ad 413d
00000050: 6cc9 4fbd 76c0 af3c f892 69bd 0126 e0ba
00000060: 367d 1e3d a93c 243d b831 f33c a851 303c
00000070: 2685 b23c 06f7 873c e368 483b b36e edb9
00000080: d3b4 f2bc dbf6 32bd 9227 01bd 6246 b53a
00000090: f34a 30bd a0ac 803d f984 45bd b207 40bd
000000a0: fe09 813d 68d5 2f3d 66f1 50bd b68f b3bd
000000b0: 810c 79bd 7f92 a739 68dd 793d 2323 853d
000000c0: 8346 143c 1323 ee3c b7d8 2abc 976d 3b3d
000000d0: e514 a7bc 2b09 92bc d514 32bc ffe3 03bc
000000e0: 5b06 41bd 779e 0c3d 36d3 34bd 821c 1fbc
000000f0: e192 4e3c 94b2 223d df17 87bd 3326 87bd
00000100: 70fb 30bd 1c20 dbbb 971e bc3b bf4a 56bc
00000110: 84ed 92bc 011c 143c ce59 3cbd f2f7 553d
00000120: 7842 9c3c 0c12 5ebc 35a7 d4bb 7451 0ebd
00000130: fe7b 0f3c b620 3c3d 5081 193d 327d 3a3d
00000140: 4d6e 823c 9694 e6bc e917 a6ba bc3a 1bbc
00000150: 4def 4b3b 274e 693d 40f9 1e3d 07d7 103b
00000160: d0a0 5ebd f0be 99bd 7739 9e3b 03e6 2abc
00000170: 96a6 6a3d 7736 f2bc 1b57 8bbd 8f43 da3c
00000180: bf9b cdbb 8e3a 1b3d 2c90 303d bff9 873d
00000190: bc85 9a3c 116a e1bc dbd6 e7bc e864 fcbc
000001a0: 51bf 8c3d 5404 8b3d 2c0e 48bd e4b9 ff3b
000001b0: fc47 b33c ec7c b3bb 21e1 a53a 4170 973c
000001c0: 840f 8f3d ae0a 033c ea10 38bc c726 043d
000001d0: 8dcd e03d 78f4 7bbd 3524 17bd 8d72 04bc
000001e0: 5381 50bd 337b c83d a4db 773d 859e 2f3d
000001f0: 2762 803d 90ef e13d bd7c 8e3c d47d ad3c
00000200: cffa 3b3d 1c86 e9bc d6af e8bc 1b64 8cbd
00000210: c791 0d3b 5d97 10bd 379d d3bd 5ff4 9d3d
00000220: 673e 593d 83e4 98bc 1f6b 773d 97c6 51bd
00000230: 6a87 8fbc 350a a9bc 2ad6 043d a4b2 183d
00000240: c05b b4bd 543a 3ebc 8712 6a3c e9eb 543a
00000250: 65fe 143d e35e 06bc 8c55 393d 00c0 8abd
00000260: 9afe 3fbc c0be ddbc 7186 7bbd 794b 3ebd
00000270: 8b4e 233c 52c7 853d 3562 43bb a6bb 02bc
00000280: 042c f13c 421e 593d dc72 e13c 9de7 86bc
00000290: a458 973d 4723 29bd dac0 573d 1375 6abc
000002a0: d162 cf3c fe66 2c3d 9432 853d 0f6d 0abd
000002b0: 2540 503c 21fc f0bb aa91 513d d903 2c3c
000002c0: c80e efbb e2ba 86bd 72c8 abbd d273 a7bd
000002d0: 33f8 4fbc 93e1 d63b 3b9f 7e3b 8cf4 f23a
000002e0: 0aed 7ebd 4e6b 83bc bb06 64bd 9941 a13c
000002f0: abb8 f13d e710 8f3c 16f2 e53c 27b7 183c
00000300: 04f9 e7bc 2833 323d 4bab 103c 078a 4e3d
00000310: 8b6b 39bd 9482 233d 7cca 9c3d e823 803c
00000320: a729 543c cb24 d8bb 806e a2bd c3a4 d5bc
00000330: 4772 503d efb7 e4bc 9a4e 82bc d662 033d
00000340: 1a7d 703d d09d 00bc 13bb 41bc e542 2ebd
00000350: 3d26 023d f05e 2dbc 7b95 f53c a511 80bd
00000360: 2858 113c 12e5 323d 8aa8 5fbd 0326 6d3d
00000370: 658a 5ebd 7376 663d 540f e3bc b962 95bd
00000380: 9d00 b1bd 8177 3b3d 7765 c53a 2045 333d
00000390: 9650 053c f81f 11bd 0f12 38bd e272 ea3a
000003a0: bceb cb3c 78cd 59bd 353a 9f3d 7ba0 15bd
000003b0: a291 ad3c 12f8 673c aa79 d03c c29f 61bd
000003c0: e3e3 fcbc 2c50 4ebd 61e8 e9bd fc27 0d3e
000003d0: e768 c03d 56c0 683d c523 27bc f393 6ebc
000003e0: f2eb 073d 1ef6 c1bc 4cdb 89bd 7825 95bd
000003f0: b39c 9ebc b75f 85bb c8e5 5abc f576 95bd
0.014029767 0.004988093 0.050427306 0.050723646 0.010989332 -0.020057973 -0.09018313 -0.08011624
-0.11368191 0.045269344 -0.022587888 -0.026610468 -0.019812275 0.039232284 -0.05732052 -0.05329235
-0.03073786 -0.0377666 -0.013331261 0.047284614 -0.0507292 0.021454077 -0.057024926 -0.001710117
0.03869363 0.040096913 0.029686794 0.010761656 0.021792006 0.016597282 0.0030580095 -0.0004528664
-0.02962724 -0.04369245 -0.031531878 0.001383018 -0.043040227 0.062829256 -0.048222516 -0.04688234
0.06300734 0.04292813 -0.051011465 -0.08767645 -0.06080294 0.0003196187 0.061002165 0.065008424
0.009050014 0.029069459 -0.010427645 0.04575881 -0.020395705 -0.017826637 -0.010869225 -0.008049964
-0.0471252 0.03433081 -0.04414674 -0.009711387 0.012608261 0.039721087 -0.0659635 -0.06599083
-0.04320854 -0.0066871773 0.0057409513 -0.013079344 -0.017935522 0.00903988 -0.045984082 0.052238412
0.019074664 -0.013554107 -0.006489659 -0.03474565 0.008757589 0.045929633 0.037476838 0.04552955
0.015921736 -0.028147023 -0.0012671921 -0.009474453 0.0031117976 0.056959298 0.038811922 0.0022100823
-0.05435258 -0.075071216 0.0048286277 -0.010430816 0.057287775 -0.029566986 -0.068037234 0.026643543
-0.00627467 0.03789764 0.043106243 0.06639432 0.018862598 -0.027516397 -0.028300693 -0.030809835
0.06872428 0.06787935 -0.04884164 0.0078041423 0.02188491 -0.0054775383 0.0012655595 0.018486144
0.06985381 0.007998152 -0.011234501 0.032263543 0.10976706 -0.06151244 -0.036899764 -0.008083952
-0.050904583 0.097891234 0.0605122 0.042875785 0.06268721 0.11032021 0.017393464 0.021178164
0.045893487 -0.028506331 -0.028404158 -0.06855031 0.0021601783 -0.0353006 -0.10332721 0.07712626
0.053038027 -0.01866365 0.060404893 -0.05121478 -0.017520625 -0.02063475 0.032430805 0.03727974
-0.088065624 -0.011610586 0.014286644 0.00081223116 0.036375422 -0.008201334 0.0452476 -0.06774902
-0.011718417 -0.027068496 -0.06140751 -0.046458695 0.009967457 0.06532158 -0.0029813175 -0.007979309
0.029439934 0.05300737 0.02752059 -0.016467864 0.07389954 -0.04129341 0.052674152 -0.014310139
0.025315674 0.04209041 0.06503788 -0.033795413 0.012710606 -0.007354275 0.051164307 0.010498964
-0.0072954632 -0.06578614 -0.08387841 -0.08176388 -0.012693453 0.0065576523 0.0038852233 0.0018536015
-0.062237777 -0.016042378 -0.05567048 0.0196846 0.11802801 0.017464114 0.028069537 0.009321011
-0.028316982 0.043505818 0.008829902 0.050424602 -0.045268577 0.03991945 0.07655808 0.015642121
0.012949384 -0.006596183 -0.079312325 -0.026079541 0.050890233 -0.027919738 -0.01590662 0.03207668
0.058713056 -0.007850125 -0.011824387 -0.042544264 0.031774748 -0.010581717 0.029978504 -0.062533654
0.008871116 0.04367549 -0.05460409 0.05789758 -0.054331202 0.056265306 -0.02771727 -0.072942205
-0.08642695 0.045768265 0.0015060146 0.043767095 0.008136889 -0.03543088 -0.044939097 0.0017887021
0.02489268 -0.053174466 0.07774774 -0.03653 0.021187607 0.014158266 0.025448639 -0.055083998
-0.030870384 -0.050369427 -0.11421276 0.13784784 0.093950085 0.05682405 -0.010201399 -0.014561641
0.033184 -0.023676928 -0.06731281 -0.07282537 -0.01936183 -0.004070248 -0.013360448 -0.0729808

convs.1.bias f4 [32]
00000000: 9037 8a3d 5371 843d b22b 893d 90cf aebc
00000010: 8c1b 803e e0ee 8b3e ff76 163d 50f7 0d3e
00000020: e154 883d 9a13 e5bc b0d8 593d 57bf b13d
00000030: 365b 3f3e a799 97bd 80a2 cc3b 3281 363e
00000040: 84d0 443d 20ad ef3d 1ef2 ea3a 8fad 3f3d
00000050: 5096 b73c 28e8 f53d 78db 073d 6400 173e
00000060: 16a2 fa3d 983a 153e b81c 69bc bd9a 903e
00000070: 08c7 2d3d e067 863d 8bd1 35bd 4433 8a3e
0.06748879 0.064669274 0.06697787 -0.021339208 0.25021017 0.27330685 0.036734577 0.13863873
0.06656814 -0.027963448 0.053185165 0.08679073 0.18687138 -0.07402354 0.0062449574 0.17822722
0.04805042 0.11702943 0.001792494 0.046796378 0.022410542 0.12007171 0.033168286 0.14746243
0.12237947 0.14573133 -0.0142280385 0.28243056 0.04242614 0.06562781 -0.04438929 0.26992238

head.weight f4 [2, 32, 1]
00000000: eaa2 0fbe 6069 013e a45e cfbb ee2f 55bd
00000010: b779 d43d 4f41 f0bd 63a1 193d ddd5 70bd
00000020: c683 d23d aced dcbc 301b 25bd f232 eabd
00000030: 4505 a83b 8e40 0e3e 3b46 06be d707 07be
00000040: 65c1 d13d fab5 c83d f1c2 763d 54b1 183e
00000050: 0c8d 8ebd 9122 1f3e e8d4 bbbd c8e8 36be
00000060: 44f7 583c c942 b8bc ecc8 c73d 2cb7 d2bd
00000070: c551 e43d 8a6b 1c3e 867d c23d 85f6 14be
00000080: e6d2 103e 35af b1bd d6e3 e83d d940 f43d
00000090: 9d5c 14be 5df2 13be 4fd8 123e e2b0 1d3d
000000a0: ed08 c43d 4086 6bbd 5d36 c43d 524d 62bc
000000b0: e5ce cabd fb4f d3bd aae7 a9bc e5da 6cbc
000000c0: 6bb3 143d cea6 c8bd e0d9 4e3d f860 073e
000000d0: 4b2f da3d 9fff d1bd 1203 163e 96d3 4bbd
000000e0: 812a 53bd f345 8abd 95c3 87bd 00e7 20be
000000f0: 1e06 c43d cb38 5abd 061d 52b9 67bf 05be
-0.1402699 0.12637854 -0.0063284207 -0.052047662 0.10374778 -0.117312066 0.037507426 -0.058797706
0.1027904 -0.0269688 -0.04030913 -0.11435498 0.0051275813 0.13891813 -0.13112728 -0.13186584
0.10241965 0.09800334 0.060244504 0.14911395 -0.06960496 0.1554053 -0.09171468 -0.17862236
0.0132425465 -0.022492783 0.0975512 -0.102888435 0.11148409 0.15275398 0.09496598 -0.14547165
0.14142951 -0.08675996 0.11371581 0.11926431 -0.14488454 -0.14447923 0.14340328 0.038498767
0.09572015 -0.057501078 0.095806815 -0.01381238 -0.09902743 -0.103179894 -0.020740349 -0.014456485
0.03630392 -0.097974405 0.05050075 0.13220584 0.10653552 -0.10253834 0.14649609 -0.04976233
-0.051554207 -0.06751623 -0.06629101 -0.1571312 0.09571479 -0.05327682 -0.00020037973 -0.13061295

head.bias f4 [2]
00000000: e0fe cc3c e5bd 833c
0.025023878 0.01608176

exp_avg f4 [32, 9, 9]
00000000: 4f85 c0b8 612a f5b8 6ca3 0bb9 7661 0eb9
00000010: 5a6c fdb8 98e7 03b9 3309 02b9 c050 07b9
00000020: 7fe8 09b9 bc1c 0eb9 2a18 35b9 38fc 57b9
00000030: 5f8e 5db9 e445 4db9 eb09 52b9 4bfc 51b9
00000040: 20b1 57b9 f74a 5db9 dbbd cbb8 7b37 eeb8
00000050: f2ed 4ab8 7ba5 f0b8 2fe3 d0b8 8419 c6b8
00000060: 2001 d2b8 641a efb8 04b5 f7b8 cf93 2eb9
00000070: 4a95 2238 71d1 3f39 4b73 02ba 8062 19ba
00000080: 2b1b d3b9 5f40 08ba 4c6c 76b9 4fe5 3cb8
00000090: 1017 71b7 461c 5e3a 5325 a13a ae50 87ba
000000a0: 6fab beba 877b 56ba 06a5 a4ba 9798 59b9
000000b0: 43e6 ca39 06d2 c2b9 7770 85b9 2051 64b9
000000c0: 6c7f d4b9 6e5a 12ba 9e94 e8b9 e927 ffb9
000000d0: 1de1 a3b9 55ac 44b9 d9b8 52bb 86b5 f43a
000000e0: 72f9 4b3a 0e3f bcbb 1c85 a4ba a8a6 9c3a
000000f0: 4d2c a6ba d859 0e3b 6495 aa3a 2b00 01bc
00000100: bc5a cc3b f6f7 3b3b 7018 7bbc 582e 29bb
00000110: 21d2 7d3b 338b 42bb 5a69 d73b 6501 6d3b
00000120: e382 13bb d017 bf3a f141 233a ff5a 84bb
00000130: 8efe 2cba 32c2 823a ff6f 71ba 0373 e03a
00000140: c08c 923a b77a 1139 1bae 0939 ad9b 0539
00000150: a6f3 d438 4925 f338 6700 ee38 8cd4 db38
00000160: a6f8 e038 3d13 b638 2578 8739 9c52 8239
00000170: cad6 8339 ce35 6739 0d7f 7539 0e6c 7839
00000180: 2ff6 6a39 0c76 6a39 eb77 4f39 89ae 8ab6
00000190: 52ea 73b6 8900 a4b6 8e96 a937 71b9 1b38
000001a0: ee4a 3838 bdfc 8938 6532 8a38 0582 8f38
000001b0: 3519 bfb8 e070 c8b9 4e2a 16ba 6198 a3b9
000001c0: 2e4d a7b9 c9bb feb9 be73 01ba 90ab 07ba
000001d0: 89b5 14ba 0ca4 b639 4fa4 0cba 35f7 64ba
000001e0: 56be 9d39 3e38 fa39 c388 d538 d632 1439
000001f0: 65df ec38 61e1 14b9 4099 94b8 860e 89b9
00000200: 062f aab9 41f6 7fb9 a1b3 77b9 ab93 b4b9
00000210: be8d c5b9 6317 d6b9 ae2f e9b9 18e9 053b
00000220: d70b 0ebb a34f 9fba 792a 263b b59f b839
00000230: 0461 96ba 78d6 58b8 3007 2eb9 76ec 39b9
00000240: 56f4 c93b e928 a7bb d848 02bb 8aee 053c
00000250: a015 e23a 8803 0ebb c599 513a 3b03 e538
00000260: 8f8f c638 e053 b53a 876a d7ba 1a81 6aba
00000270: 7783 e83a a20b 9438 4fa5 7fba cd5d 2bb9
00000280: c611 9bb9 bc83 8eb9 50ff fd37 210a e537
00000290: c77f 0638 3358 ba37 0504 2e38 7011 0238
000002a0: 7a98 ef37 fbf7 ca37 52e1 8937 900b 3e38
000002b0: 329a 4838 cc31 5d38 e252 2f38 77ce 8238
000002c0: 3687 4838 5b22 3038 d998 1738 e1c5 c437
000002d0: dee9 d038 af1f ad38 88cc a238 7129 6e38
000002e0: a5ca 4d38 7a36 6238 4784 3238 6d54 0238
000002f0: e012 1138 7a23 0a38 e42f 1f39 8b73 de38
00000300: f6e2 9f37 ef39 cf38 6dd3 2b39 59a7 9838
00000310: b983 9139 de5c 043a 57fe b3b9 1747 3a38
00000320: 8f89 8ab9 2021 28ba 2051 e4b9 47f5 94b9
00000330: bdea 20ba 2072 4039 2d92 843a 841c cf38
00000340: c940 3139 b88f 0839 01ec d438 1911 e138
00000350: e366 f638 84a3 6938 7385 2539 d2ec 8839
00000360: 2620 b23a 6bcd 883a a4ea e6b9 99ec 34ba
00000370: 356d 423a 36aa 0e3a 93a3 8ab9 5b5a 023b
00000380: cb8f 063b ca21 523b 285e 163b c44d 03bb
00000390: d5bb 31bb 4ad7 bb3a 0442 5f3a 22ea 9bba
000003a0: 69bd ac3b 5007 b33b 10eb 7d3a fd0d 2a3a
000003b0: 2b38 03ba 8caf 35ba 89d1 a139 bf0d e038
000003c0: b397 e2b9 1de5 aa3a 37d9 b53a f254 5039
000003d0: 43d1 5239 0db9 5139 f771 5739 121b 5639
000003e0: 988f 5739 c5cd 5739 bc73 5239 32ab 5539
000003f0: 0441 8339 6860 8339 0fc2 8039 f8da 8439
-9.180104e-05 -0.00011690404 -0.00013316952 -0.00013578482 -0.00012084162 -0.00012579409 -0.00012401193 -0.00012904685
-0.0001315195 -0.0001355288 -0.00017270507 -0.00020597957 -0.0002112924 -0.0001957636 -0.00020030855 -0.0002002578
-0.00020569982 -0.00021104129 -9.715158e-05 -0.000113590584 -4.8382157e-05 -0.00011474915 -9.960529e-05 -9.4461284e-05
-0.0001001379 -0.00011401324 -0.000118115946 -0.00016648996 3.8762846e-05 0.00018293202 -0.00049762864 -0.00058511645
-0.00040265298 -0.00051975803 -0.00023500732 -4.5036253e-05 -1.4370089e-05 0.0008472841 0.0012294449 -0.0010323727
-0.0014546941 -0.0008181859 -0.0012561388 -0.00020751577 0.000387 -0.00037159043 -0.0002545153 -0.00021773996
-0.00040530728 -0.0005582933 -0.00044361217 -0.00048667126 -0.00031257505 -0.00018756215 -0.0032153635 0.0018669821
0.00077810057 -0.0057448214 -0.0012551877 0.0011951523 -0.0012677998 0.0021721032 0.0013014493 -0.007873575
0.0062364023 0.0028681732 -0.015325651 -0.0025814977 0.0038729983 -0.002968502 0.006573838 0.0036164161
-0.0022508434 0.001457924 0.00062277826 -0.004039168 -0.0006599211 0.0009976088 -0.0009210109 0.001712412
0.0011180863 0.00013873992 0.00013130197 0.00012741862 0.00010154331 0.00011594088 0.00011348799 0.00010482324
0.00010727467 8.68202e-05 0.0002583872 0.0002485708 0.00025146297 0.0002204992 0.00023412351 0.00023691377
0.0002240769 0.00022359955 0.00019785731 -4.133039e-06 -3.6346214e-06 -4.887643e-06 2.0216477e-05 3.7127586e-05
4.3938802e-05 6.579745e-05 6.5897395e-05 6.8429894e-05 -9.112285e-05 -0.0003823107 -0.000572835 -0.00031203314
-0.00031910226 -0.00048586566 -0.00049382064 -0.0005175406 -0.0005672803 0.0003483597 -0.000536506 -0.00087343465
0.00030087185 0.0004772562 0.00010182105 0.00014133318 0.000112949674 -0.0001419834 -7.085735e-05 -0.00026141497
-0.00032459962 -0.00024410432 -0.00023622673 -0.00034442297 -0.00037680374 -0.00040834685 -0.00044476747 0.0020433124
-0.0021674538 -0.0012154471 0.0025354906 0.00035214206 -0.0011473005 -5.1698153e-05 -0.0001659661 -0.00017731063
0.0061631603 -0.0051013124 -0.0019879844 0.008174548 0.0017248876 -0.0021669585 0.0007995631 0.00010920173
9.4681156e-05 0.0013834201 -0.0016434946 -0.0008945629 0.0017739375 7.059357e-05 -0.0009752111 -0.00016342774
-0.00029577146 -0.000271825 3.027884e-05 2.7303644e-05 3.206709e-05 2.2213999e-05 4.1488576e-05 3.1010655e-05
2.8562023e-05 2.4195751e-05 1.6436596e-05 4.53103e-05 4.782732e-05 5.2736883e-05 4.1800442e-05 6.23734e-05
4.780964e-05 4.1993666e-05 3.6143556e-05 2.3457165e-05 9.961774e-05 8.2551844e-05 7.762859e-05 5.6782217e-05
4.9064536e-05 5.3933334e-05 4.25617e-05 3.1073043e-05 3.4588273e-05 3.2934804e-05 0.00015181262 0.000106073065
1.9059964e-05 9.88132e-05 0.00016386593 7.279096e-05 0.00027754696 0.00050492387 -0.00034331038 4.4412063e-05
-0.000264239 -0.00064136274 -0.00043547992 -0.00028411506 -0.00061384944 0.00018353062 0.0010114365 9.8758406e-05
0.0001690417 0.0001302351 0.00010152907 0.00010732021 0.00011749358 5.5703815e-05 0.0001578534 0.00026116386
0.0013589903 0.0010437196 -0.0004404384 -0.0006901711 0.0007416786 0.00054422335 -0.00026443283 0.0019890282
0.0020532485 0.0032063597 0.0022944305 -0.0020035366 -0.0027120013 0.0014331129 0.0008516612 -0.0011895339
0.005271603 0.005463518 0.0009686211 0.000648707 -0.0005005623 -0.00069307606 0.0003086443 0.00010683713
-0.00043219104 0.0013038252 0.0013873939 0.0001986807 0.00020105117 0.0002000073 0.00020546453 0.00020418715
0.0002055749 0.00020580653 0.00020070275 0.00020377038 0.00025034708 0.00025058095 0.00024558647 0.00025340146

exp_avg_sq f4 [32, 9, 9]
00000000: d848 fd35 9d13 1036 7804 1f36 b87d 2c36
00000010: 1fed 3436 d4eb 3436 adcd 3436 5897 3436
00000020: f435 3436 c673 7236 270a 8a36 dcf1 9736
00000030: 1d7a a536 7224 ae36 74ee ad36 2fc1 ad36
00000040: 934e ad36 f7bb ac36 d979 a636 7f39 be36
00000050: 6fe7 d536 c3b2 e636 f582 f336 c569 f336
00000060: 0f3b f336 ec5a f236 1d88 f136 a860 b337
00000070: c2ae c837 7474 1138 7299 0438 86b2 c037
00000080: 34f8 8d37 5efd a537 fea6 f337 3352 2838
00000090: 4aa4 8d39 bc87 9d39 150a e639 f81d d139
000000a0: c72d 9439 304e 5639 0d83 7939 26d7 b939
000000b0: 968b 033a e9a2 0b37 bc6a 1b37 3ef5 4837
000000c0: b5c7 3c37 97e0 1437 854e e236 fbe2 e736
000000d0: ffcf 1037 0082 3637 ea7b c839 37ab 6939
000000e0: 92d2 5a39 1da9 ba39 f1ce b339 889f 8939
000000f0: f14d 0239 c1ab 8539 d299 5339 01ea 3f3b
00000100: 1543 d63a 6cd6 ca3a a877 2c3b cf47 273b
00000110: 7bc6 f93a 2732 743a f442 fb3a d61d ce3a
00000120: 775e 5a39 5a23 ec38 2839 de38 1bfe 4739
00000130: ec69 4439 040d 1439 d80c 8a38 f2a6 0439
00000140: 6d5f da38 a349 a035 2030 a135 899b a235
00000150: efa1 a235 8cfc a235 a075 9e35 4f8e 9a35
00000160: 6aec 9535 2924 9035 6d38 1936 0de1 1936
00000170: dc50 1b36 2bce 1a36 aa75 1a36 552d 1536
00000180: 3cbe 1036 ebca 0b36 4191 0536 d864 3336
00000190: 1eb8 3436 c975 3436 19ee 3136 3a24 3136
000001a0: 7f4e 2b36 dcdd 2636 a8d5 2036 90e7 1a36
000001b0: 252f 7a37 5efd 7e37 140a 8a37 6832 a037
000001c0: 30c6 a737 daf4 7d37 f6b1 8037 64d8 6337
000001d0: 26b3 2137 6ae5 1a39 3771 1739 8e9f 2c39
000001e0: 94ac 3939 4638 2839 099d e538 f5ce 0039
000001f0: d67b c538 cc6d 4638 b87f 9736 dac8 9736
00000200: 494f 9d36 d78a b636 1e80 c036 747c 9936
00000210: ef18 9c36 b088 9036 0fa8 6b36 2b98 c239
00000220: c59e b038 7a23 1a39 543f 6c39 56be a339
00000230: 0ab4 9738 80b1 2539 4982 3939 93e4 8c39
00000240: c68b 283b 6aa9 333a 23c3 983a 7a72 ce3a
00000250: edc3 0e3b eb68 073a 7b8f 993a a7db a33a
00000260: a360 fe3a 46be 4739 bdfe 4638 7847 aa38
00000270: 644e ea38 419a 2239 a5ba 2738 feab aa38
00000280: 8947 c638 2244 1739 d68a e634 041d ee34
00000290: 129b f434 4c93 fc34 f15b 0135 bdcf fe34
000002a0: e2b5 fb34 c236 fa34 27fd f734 5e09 6735
000002b0: 1d89 6d35 ffc5 7335 031e 7b35 d3c8 8035
000002c0: a38a 7b35 6c0a 7835 0281 7635 b6f5 7235
000002d0: af49 8d35 ddf0 9035 b339 9435 37ed 9435
000002e0: a54e 9735 9865 9535 9bdc 9335 fdb9 9235
000002f0: 87c3 9035 d5f4 8a36 c20c a036 24c7 e136
00000300: 7a6a e236 ff5b 9236 f224 5036 3a6a 8836
00000310: f5ce 6b36 387b 2936 bca2 4438 74d9 6a38
00000320: 1a35 ac38 24ef a538 6d70 3938 34e5 e237
00000330: 6f42 3038 375f 1038 1233 9437 4cf6 a435
00000340: 1e07 b835 5966 f335 0b61 f335 f16e a335
00000350: c471 7135 f7d6 9335 4779 7735 e689 4535
00000360: 3518 fa38 f24c 2438 9d14 7438 8f9e 6b38
00000370: 7ceb f338 d33b cf38 a734 5938 25a2 6438
00000380: 7c8d 2739 a768 633a e443 a639 ac1c ee39
00000390: f0d7 d539 2fbb 5f3a dce9 373a 421f ce39
000003a0: c137 d239 4e90 983a 5314 8338 4968 b637
000003b0: c57f 0438 d431 f637 53b3 7d38 28c7 5438
000003c0: 668f e037 4d83 fa37 6e89 b138 69b0 e834
000003d0: 24e2 f134 f674 fb34 dad2 fb34 30d9 f834
000003e0: 35c5 f134 798c e934 104c e134 86ec d634
000003f0: c79a 6635 18fd 6e35 692a 7935 3646 7a35
1.8871169e-06 2.1469089e-06 2.3695447e-06 2.5703175e-06 2.6960113e-06 2.695936e-06 2.694181e-06 2.6910184e-06
2.6853495e-06 3.61282e-06 4.1139024e-06 4.528307e-06 4.931599e-06 5.189847e-06 5.1835614e-06 5.1782913e-06
5.164949e-06 5.1478814e-06 4.9613705e-06 5.6691347e-06 6.374837e-06 6.8753448e-06 7.2572097e-06 7.2542775e-06
7.2488397e-06 7.2227467e-06 7.1982054e-06 2.1383472e-05 2.3923236e-05 3.467915e-05 3.161416e-05 2.2971315e-05
1.6924088e-05 1.9787516e-05 2.904562e-05 4.0130875e-05 0.0002701602 0.00030046504 0.0004387653 0.00039885915
0.00028262867 0.00020437757 0.0002379531 0.00035446248 0.00050180533 8.322976e-06 9.263571e-06 1.1978029e-05
1.1252171e-05 8.873779e-06 6.7444657e-06 6.9107605e-06 8.631497e-06 1.0878313e-05 0.00038239296 0.00022284394
0.00020868544 0.00035602684 0.00034295724 0.00026249536 0.00012426802 0.00025495703 0.0002017983 0.0029283764
0.0016346896 0.001547528 0.0026316438 0.002552498 0.0019056344 0.00093153346 0.0019169734 0.0015725445
0.00020825291 0.00011259942 0.00010596431 0.0001907278 0.00018731476 0.00014119229 6.582745e-05 0.00012650693
0.000104128245 1.194236e-06 1.2009441e-06 1.2115207e-06 1.211707e-06 1.2143441e-06 1.1806151e-06 1.1515311e-06
1.1170171e-06 1.073936e-06 2.283162e-06 2.2929773e-06 2.3143866e-06 2.3067794e-06 2.3016278e-06 2.2229117e-06
2.1568403e-06 2.0830728e-06 1.9903093e-06 2.6731777e-06 2.692926e-06 2.689065e-06 2.6513646e-06 2.6396142e-06
2.5526676e-06 2.4865067e-06 2.3966222e-06 2.3082575e-06 1.4912138e-05 1.5198571e-05 1.6455575e-05 1.9096959e-05
2.000024e-05 1.5136984e-05 1.5341659e-05 1.3580637e-05 9.638059e-06 0.00014772048 0.00014442658 0.00016462637
0.00017707265 0.00016042692 0.00010948821 0.00012284129 9.416758e-05 4.7309135e-05 4.515019e-06 4.523533e-06
4.6881946e-06 5.4401858e-06 5.7369607e-06 4.5742436e-06 4.652065e-06 4.307447e-06 3.5115552e-06 0.00037115937
8.421907e-05 0.000146998 0.00022530305 0.00031231594 7.233776e-05 0.0001580175 0.0001769151 0.00026873182
0.0025718077 0.0006853553 0.0011654835 0.0015750669 0.0021784261 0.00051654753 0.0011715734 0.0012501375
0.0019407462 0.00019049001 4.7444122e-05 8.119544e-05 0.00011172591 0.00015506988 3.998973e-05 8.138268e-05
9.4547e-05 0.00014425864 4.2941855e-07 4.4352066e-07 4.556137e-07 4.704583e-07 4.819004e-07 4.7462336e-07
4.688473e-07 4.660597e-07 4.6191528e-07 8.6067837e-07 8.8488906e-07 9.0812676e-07 9.354846e-07 9.595191e-07
9.370653e-07 9.2402365e-07 9.182987e-07 9.050958e-07 1.0526763e-06 1.0798937e-06 1.1043652e-06 1.1095898e-06
1.1273265e-06 1.1130933e-06 1.1016558e-06 1.0931977e-06 1.0785742e-06 4.1412227e-06 4.769857e-06 6.7287056e-06
6.7477204e-06 4.361849e-06 3.101592e-06 4.0654822e-06 3.5138194e-06 2.5254685e-06 4.68816e-05 5.5992467e-05
8.21149e-05 7.9123565e-05 4.421214e-05 2.704803e-05 4.202354e-05 3.442095e-05 1.7666756e-05 1.2290634e-06
1.371114e-06 1.8134698e-06 1.8133154e-06 1.2176735e-06 8.9945047e-07 1.1014916e-06 9.219115e-07 7.358889e-07
0.00011925438 3.9172308e-05 5.819333e-05 5.6176035e-05 0.00011631005 9.881672e-05 5.1785868e-05 5.4510445e-05
0.00015979068 0.0008674957 0.0003171257 0.0004541626 0.00040787412 0.00085346674 0.0007015744 0.0003931467
0.0004009586 0.0011639686 6.2503525e-05 2.1744652e-05 3.1590247e-05 2.9348688e-05 6.048691e-05 5.0730217e-05
2.6769656e-05 2.9863464e-05 8.465616e-05 4.3341723e-07 4.5054287e-07 4.6837494e-07 4.6905808e-07 4.6351624e-07
4.5033235e-07 4.350184e-07 4.196486e-07 4.00327e-07 8.590691e-07 8.903021e-07 9.2821443e-07 9.323443e-07

exp_avg f4 [32]
00000000: 09b6 913a b612 73ba 05a3 3339 ce3c 64b9
00000010: 77d0 9fba 5269 0b3a 2be4 5938 1614 b5b9
00000020: 251b 5dba 0a55 ac39 7500 d739 fcae 943a
00000030: 6598 beba b018 c4b9 3d5e 683a 58bc b83a
00000040: 99e8 a9ba dfb0 99ba 52bb a73a b278 32ba
00000050: 9a8f 5e39 6bd8 2fba 12ce d839 aa8b de3a
00000060: 5eb6 90ba bd83 27ba a3a6 9aba 6aec 6d3a
00000070: 8c94 43ba 2aa8 d9b9 6ae0 2f39 b956 d639
0.0011116873 -0.00092725025 0.000171315 -0.00021766426 -0.0012192865 0.0005318123 5.194933e-05 -0.00034537975
-0.0008434526 0.00032869756 0.00041008336 0.0011343653 -0.0014541267 -0.00037402427 0.000886414 0.0014094217
-0.0012962996 -0.0011725685 0.0012796915 -0.0006808146 0.00021225066 -0.0006707969 0.00041352265 0.0016978879
-0.0011040678 -0.0006390175 -0.0011798929 0.0009076061 -0.0007460795 -0.00041514757 0.00016772901 0.00040881874

exp_avg_sq f4 [32]
00000000: b70f 7837 decd ef36 28ed ea35 406c f535
00000010: e426 3837 cd5e 8c36 3326 6136 94c2 be35
00000020: 8199 4036 ea7b 4535 8ae5 5436 2609 c336
00000030: 6f1e 1637 fbf4 3d36 7a1f 2b37 4b6e 7637
00000040: 0c52 3937 33ec 0637 82c8 8737 44a7 4237
00000050: 198b b236 987b 1d37 7b3f d436 0924 bd37
00000060: 6bf9 d236 a3c8 ac36 aa05 8537 5fe1 8737
00000070: 1af7 bd36 6f19 2736 2117 0d35 f93b 8036
1.4785611e-05 7.146721e-06 1.750338e-06 1.8285427e-06 1.097631e-05 4.1833614e-06 3.3549848e-06 1.4212733e-06
2.869958e-06 7.356854e-07 3.172407e-06 5.812518e-06 8.947783e-06 2.8305792e-06 1.0199723e-05 1.4688422e-05
1.1045962e-05 8.042017e-06 1.6186623e-05 1.1602246e-05 5.3210065e-06 9.386706e-06 6.3254824e-06 2.2547336e-05
6.287524e-06 5.1493566e-06 1.5857473e-05 1.61982e-05 5.6614053e-06 2.4899743e-06 5.256025e-07 3.821679e-06

exp_avg f4 [32, 32, 9]
00000000: 78b9 343a b73a 3539 7f35 20b9 8d05 c239
00000010: f04b 93b9 ff44 cc38 a792 e0b8 1e09 a9b9
00000020: 9446 96b9 3e6c 6bb8 1214 0139 cc88 25ba
00000030: 6ad4 c539 a6aa 45b9 050a 7639 56d0 28b9
00000040: b745 ce39 151c 213a b906 eb36 6f6f cb39
00000050: 182f a837 2af7 7438 cc08 67b9 394b c339
00000060: 76bb aeb9 bae9 38b9 2466 c939 930b 1aba
00000070: a9db eeb7 9f1a dfb8 82ed 93ba 7333 cc39
00000080: d5e7 cbb8 cc9d 21b9 f59b d5b6 33c8 af39
00000090: a29c c338 a42d f8b9 782b b738 18a2 78b9
000000a0: 588e 75ba 2362 2739 e801 0ab9 6100 1eb9
000000b0: 83d2 32b9 8008 f239 e9d9 a939 457f 2039
000000c0: f1ce c039 b0b8 88b9 564d 063a d752 5439
000000d0: b9b8 ab39 6c93 d039 90ce cc38 cbf2 00b9
000000e0: e0cd ae39 df89 05ba fa38 0239 b20e a2b8
000000f0: 2d77 a438 8821 8f38 c5ff f3b8 c1e3 aab8
00000100: da26 5db9 3f29 5f39 d569 d838 b031 d9b9
00000110: 28b3 f639 fdd4 0f39 6e2d ff39 f7dc 273a
00000120: 1555 bdb7 2522 6c39 eb9f 1139 67e4 4f39
00000130: 0477 82b7 ed7c f639 5965 5239 615c 0d39
00000140: 272d 2a39 61de bf39 466d 5b39 b535 be39
00000150: 29bb 40b8 6a12 c039 3fd1 1fb9 d2e8 a7b7
00000160: 4917 08b6 1207 d2b8 0137 0039 9982 18ba
00000170: 3591 8db8 adbb bbb6 eea1 84b8 79ba bfb9
00000180: 0dce c0b9 9cd7 d6b8 29e9 bfb9 4125 a639
00000190: 837a 83b8 fc81 57b9 d9e1 f0b7 d7c6 5aba
000001a0: d0f4 a4b9 4d17 9bb9 1194 48b8 41f6 6639
000001b0: 33a5 c539 cb22 7c39 d0df a4b8 4004 103a
000001c0: ab61 0338 d509 573a 151c 4f38 bf07 423a
000001d0: 14b6 203a 0897 a4b8 aadd d039 8f7e 1bb8
000001e0: 54ba b639 5550 c2b9 06b0 eb39 51ab 043a
000001f0: bf2f 8439 f9f7 f839 e6b6 df39 9a54 c739
00000200: dac4 e938 6677 b9b9 2da7 32b8 6f55 4cb9
00000210: b717 34ba 2b45 1138 5e69 4138 243b b539
00000220: c65d d339 24f6 9438 db30 6339 6513 0c3a
00000230: 0aab 5d39 2a9d 5639 25b7 b439 f9bc 9039
00000240: 4c87 fc38 b239 2e38 6984 cf38 a3c7 54ba
00000250: 2020 9db9 ee38 76b9 14e8 80ba 58cb c1b8
00000260: 4a1c bd38 13c7 e638 9e07 6938 bd47 213a
00000270: f19c 0db9 f691 2b3a 1569 fa39 ee59 5a3a
00000280: 1907 293a 0441 303a 6355 8639 85b1 f139
00000290: f07d cb39 7235 0a3a 8315 5139 68dc b33a
000002a0: 861d ce39 794d bb3a a9dd da3a 35a4 6739
000002b0: 3818 18b9 ea7d a8b9 0b39 f3b7 b3b1 dfb9
000002c0: 339d b7b9 3c9e 8f37 d068 9739 f6c8 9339
000002d0: b46d d338 6cb3 033a 04e4 ee39 2ccc d039
000002e0: 8345 033a d75d 6eb9 dffe 1a3a becb a739
000002f0: 1c6f 9339 a4c8 7339 2f26 223a 4b39 9739
00000300: acf3 7f36 adcd b039 4d2b 9fb9 f7f7 bd39
00000310: 07e7 b039 58a5 033a f90d c539 a119 b639
00000320: e5a0 c2b9 9fa0 33b9 cfde c438 89e5 07ba
00000330: 70a2 0bba a8bf 3938 9582 10b8 e676 95b9
00000340: 0634 193a 04f6 62b9 cd62 4fb9 b510 25b9
00000350: a296 19b9 37ca 9fb9 4300 3fba fcd6 96b6
00000360: f81c 23b9 07e1 21b8 5d3f c9b9 224d a1ba
00000370: aa95 6d3a 25ea 79ba d2ee 2839 40f3 3839
00000380: 1949 4d39 32f9 9338 6390 b138 2a41 b438
00000390: b661 92b9 ab4e 31ba 4dea 9239 1c47 b9b9
000003a0: 284f c838 ab86 c439 326c 4ab9 7ba9 a3b8
000003b0: 5953 8139 e318 72b9 84f1 83ba ca62 fb38
000003c0: 9a68 25b9 0707 b7b9 8f24 4ab9 6564 c439
000003d0: 1463 ecb8 1e0c 80b9 1e6f 5cb9 d314 f0b9
000003e0: c9d6 83ba e73e ba38 b30a 40b9 1250 0eb9
000003f0: d6d2 04b8 e480 80b9 2ba9 e5b9 dd19 9ab8
0.0006894092 0.00017283378 -0.00015278718 0.000370067 -0.00028094603 9.7403296e-05 -0.000107084685 -0.00032240985
-0.00028662814 -5.6129174e-05 0.00012309875 -0.0006314635 0.0003773303 -0.00018850956 0.00023464121 -0.0001609934
0.00039343323 0.0006145847 7.0043284e-06 0.00038802202 2.004909e-05 5.8404323e-05 -0.00022033154 0.00037249344
-0.00033327535 -0.00017634677 0.00038413808 -0.00058763585 -2.8474098e-05 -0.00010638427 -0.0011285993 0.00038948245
-9.7229764e-05 -0.0001541294 -6.3660505e-06 0.0003352776 9.3275e-05 -0.0004733625 8.734217e-05 -0.00023711508
-0.0009367219 0.0001596292 -0.00013161416 -0.00015068195 -0.00017053825 0.0004616417 0.00032396548 0.000153062
0.00036775277 -0.00026077544 0.0005123218 0.00020248756 0.0003275329 0.0003978269 9.765953e-05 -0.00012297479
0.00033341255 -0.0005094092 0.00012418992 -7.727499e-05 7.8423276e-05 6.825017e-05 -0.00011634784 -8.148654e-05
-0.00021090676 0.00021282303 0.000103193954 -0.00041426485 0.00047054258 0.00013716887 0.00048671238 0.0006403471
-2.2570175e-05 0.00022519434 0.00013887852 0.00019826145 -1.5552629e-05 0.00047013853 0.00020064916 0.00013481222
0.00016229284 0.00036596044 0.00020926175 0.0003627964 -4.5950674e-05 0.00036634813 -0.00015241372 -2.0016367e-05
-2.0279133e-06 -0.00010014897 0.00012227522 -0.00058178004 -6.750451e-05 -5.5948826e-06 -6.324412e-05 -0.00036569292
-0.00036774614 -0.000102444756 -0.00036604077 0.00031689744 -6.269386e-05 -0.00020552421 -2.8715398e-05 -0.00083456695
-0.00031462917 -0.00029581264 -4.7821613e-05 0.00022026246 0.0003769785 0.00024045554 -7.861818e-05 0.00054937974
3.1323794e-05 0.0008203064 4.93788e-05 0.0007401667 0.00061306474 -7.848261e-05 0.00039838004 -3.7072747e-05
0.0003485257 -0.00037062416 0.0004495384 0.00050609285 0.00025212576 0.00047487 0.00042670144 0.0003801927
0.00011146972 -0.00035374908 -4.25942e-05 -0.00019486783 -0.0006869989 3.463511e-05 4.6112917e-05 0.00034567073
0.00040314923 7.103037e-05 0.00021666607 0.0005343466 0.0002113992 0.00020467179 0.0003446873 0.00027606616
0.000120414974 4.1538566e-05 9.8951925e-05 -0.00081169064 -0.00029969309 -0.00023481596 -0.000983479 -9.240833e-05
9.0174915e-05 0.00011004335 5.5558623e-05 0.00061523524 -0.00013505273 0.0006544882 0.00047762008 0.00083294406
0.0006447896 0.0006723555 0.0002562209 0.00046099364 0.00038813008 0.0005272246 0.00019939807 0.0013722302
0.00039313379 0.0014290056 0.001669814 0.00022091049 -0.00014504872 -0.0003213727 -2.899442e-05 -0.0004266627
-0.00035021603 1.7120612e-05 0.00028879056 0.00028187752 0.00010081698 0.00050239894 0.00045564782 0.00039824971
0.00050076115 -0.00022732407 0.00059126125 0.00032004522 0.00028120808 0.0002324903 0.00061854994 0.0002884365
3.8139797e-06 0.00033722576 -0.00030359105 0.00036233637 0.00033741465 0.00050218916 0.00037585179 0.0003473284
-0.0003712244 -0.00017130606 9.3875096e-05 -0.0005184045 -0.0005326634 4.428593e-05 -3.445389e-05 -0.0002850808
0.0005844239 -0.00021644688 -0.00019777865 -0.0001574185 -0.00014647332 -0.00030477505 -0.0007286111 -4.495376e-06
-0.00015555683 -3.8594964e-05 -0.00038384917 -0.0012306313 0.0009063134 -0.00095334864 0.00016110696 0.00017638225
0.00019577554 7.0559225e-05 8.466912e-05 8.5952066e-05 -0.0002792009 -0.00067637366 0.00028021858 -0.0003533893
9.551487e-05 0.0003748437 -0.00019304527 -7.804014e-05 0.00024666896 -0.0002308819 -0.0010066484 0.000119870136
-0.00015774593 -0.00034909716 -0.0001927784 0.00037458833 -0.00011271812 -0.0002442309 -0.0002102223 -0.00045791882
-0.0010058518 8.8808876e-05 -0.00018314533 -0.00013572004 -3.166761e-05 -0.00024510093 -0.00043804324 -7.34811e-05

exp_avg_sq f4 [32, 32, 9]
00000000: a03f 9a38 e088 1e38 a994 cd38 38aa 3a38
00000010: 5ec6 6a38 7a1c 8d38 881f 2637 c60a e037
00000020: 9a48 be36 0910 db37 b23b e635 4c92 1e38
00000030: b30b 2d38 34dc 1e38 c42f 2f38 f0fd 0238
00000040: 4abc 3738 74aa 9d37 7e5e ab37 95c8 9437
00000050: 845a 0838 9e21 2838 ddbd 3c38 5da7 5438
00000060: 56f4 db37 3c51 d338 4468 9536 10bd 0339
00000070: 5a2d e538 fac5 b037 8346 2b39 6946 a138
00000080: 0fd1 bb37 7692 fe37 a536 2238 eb6a df36
00000090: eb12 9436 c36c 8438 643a 2538 9d77 9837
000000a0: 401a bf38 f711 f537 1a23 a637 777b ff36
000000b0: 597f 5237 5b0f fb36 e766 8637 5217 1138
000000c0: 49c7 2337 ea1b 3338 1446 0738 05b2 f036
000000d0: 277c 8037 945f 8236 1d71 9836 39cb b638
000000e0: c6ad 1238 ce0c 9c38 cbde fd38 c7d8 f137
000000f0: b981 9838 4931 c936 d6c6 9f37 4090 d235
00000100: d1e1 0137 44c2 3037 3e45 6437 4cee 3b38
00000110: 6f52 a837 6d6d be37 ec50 a637 d7b4 2337
00000120: 15d8 1b37 896e 2537 4b28 c636 23a3 6937
00000130: 6dcd 2037 9c3f 1037 9de8 d536 c617 4c37
00000140: f4a8 1836 39a4 5838 8188 2838 4bbb f337
00000150: 01dd 1338 73fc df37 80b1 e437 abdb c437
00000160: 11fd 9337 9909 8b37 a666 a637 fef3 8a38
00000170: 758c dd38 32cc 2938 fd39 be38 2479 9a37
00000180: 7b90 1738 df32 b537 6dbd 5438 6353 3f37
00000190: 437b 6237 b5d0 8d37 b200 5337 cd29 5538
000001a0: f47d 1438 a243 d337 d744 a537 4268 8936
000001b0: 60d7 e637 13b1 8d37 0a5a 5638 8796 2e38
000001c0: 9e78 8c38 870e 5538 4a38 ba37 7ffa 2e38
000001d0: e5fa ec36 f821 e337 c844 e937 390f 0938
000001e0: 7481 db37 e609 1638 23bf 3f38 675a 1337
000001f0: c935 1f38 de44 0d37 c77e d036 cd78 3736
00000200: 9b7d b636 fcb1 a137 42c7 0537 6b4f 1537
00000210: 0c22 8c37 b576 0937 85bc ba34 d73c 1a37
00000220: 7fe7 3237 9dfb 4037 dd98 bf37 6dec 1f37
00000230: e6c7 3d37 0552 e337 4908 af36 bee7 5a37
00000240: af04 0a37 0422 7237 cff3 cf36 a974 2e38
00000250: c6e6 8037 01e2 e537 e80a 9338 4a52 9337
00000260: 82b2 d237 dbfa 9937 7621 4c38 15c8 b136
00000270: a90c 5b38 769e 3138 2969 5837 3741 0838
00000280: cd7c a237 4831 be37 95e0 5f36 e34d 1236
00000290: 4406 0438 f104 1838 7c33 0539 2354 8838
000002a0: d4f3 9038 525d f238 3e6b ed37 fe5f 2037
000002b0: 6d24 7237 b100 ff37 41cf 3137 8b8e 2b38
000002c0: 4c62 8037 25bf af37 b841 3236 1b4f ec36
000002d0: 235b d537 a88f 6e37 1ab1 cd37 9ec7 2a38
000002e0: acdf 4d37 9a48 6538 79d8 da37 e8c1 e037
000002f0: e9de 9c37 0a71 6737 d420 3e37 39c7 9c37
00000300: c4f1 7138 eb16 2137 d3b8 9038 84ba 6338
00000310: 827a 8337 b235 de37 a229 e937 7827 3037
00000320: 419c 4b38 4379 2a38 8c1e b336 c1da 2438
00000330: 5721 5b38 28a9 4636 90bb 8337 3278 7c38
00000340: 3414 1138 be48 3638 c446 b638 f915 b637
00000350: aec1 a638 c182 5737 d5d3 c538 aeb5 8736
00000360: 3956 c938 2f20 e738 aae0 a438 59b6 ab39
00000370: 9242 a638 66e3 fe38 8783 0339 f350 a337
00000380: 1e9c be37 ab47 5237 8c2e f236 5194 3537
00000390: a02f e537 279e c838 2c24 0138 6d18 2e38
000003a0: d69a 5a38 ca79 4c37 73e2 b837 74b2 ae37
000003b0: b561 2937 7103 ac37 4ab6 7138 b13d 1937
000003c0: 0915 bd37 bfae c137 bb3c 1037 bb9b a337
000003d0: 0f30 4537 0c63 3538 108d c537 bfc9 1f38
000003e0: 63e1 8338 8d7e 9d37 1466 a637 cecc 6837
000003f0: 447d 4637 79e5 d237 5d51 5538 eddd 7037
7.355143e-05 3.779761e-05 9.802852e-05 4.4504384e-05 5.597469e-05 6.728708e-05 9.9017125e-06 2.6707898e-05
5.670893e-06 2.6114301e-05 1.7153709e-06 3.7806385e-05 4.125731e-05 3.7875216e-05 4.1767737e-05 3.1230913e-05
4.3805958e-05 1.8795232e-05 2.042879e-05 1.7736378e-05 3.2509226e-05 4.008563e-05 4.4999517e-05 5.0700608e-05
2.6220612e-05 0.00010076395 4.452684e-06 0.00012563565 0.00010928018 2.1073025e-05 0.00016334098 7.690193e-05
2.2389488e-05 3.034736e-05 3.86747e-05 6.658365e-06 4.412946e-06 6.314509e-05 3.9393446e-05 1.8175511e-05
9.112479e-05 2.9214641e-05 1.9805088e-05 7.6139654e-06 1.2546626e-05 7.4821705e-06 1.6021962e-05 3.4592413e-05
9.761957e-06 4.2702923e-05 3.2251774e-05 7.1732816e-06 1.5316602e-05 3.8854287e-06 4.543121e-06 8.7162894e-05
3.497095e-05 7.441045e-05 0.000121054785 2.8830384e-05 7.2720875e-05 5.9960043e-06 1.9046867e-05 1.5688202e-06
7.741576e-06 1.05356485e-05 1.3605981e-05 4.4806206e-05 2.0065547e-05 2.270072e-05 1.9826424e-05 9.757662e-06
9.2890305e-06 9.860502e-06 5.9055506e-06 1.39258655e-05 9.584573e-06 8.597879e-06 6.3749744e-06 1.2164883e-05
2.2748109e-06 5.1651357e-05 4.018145e-05 2.9055072e-05 3.5253357e-05 2.6701227e-05 2.7262373e-05 2.3467312e-05
1.7641609e-05 1.657456e-05 1.9836541e-05 6.6258e-05 0.00010564263 4.048291e-05 9.070707e-05 1.8414641e-05
3.6135763e-05 2.160057e-05 5.0721155e-05 1.1403902e-05 1.3499349e-05 1.6905697e-05 1.2576742e-05 5.0822087e-05
3.5403253e-05 2.5184654e-05 1.9701589e-05 4.0950554e-06 2.7518428e-05 1.6890966e-05 5.110543e-05 4.1625022e-05
6.698187e-05 5.0796687e-05 2.219914e-05 4.1718125e-05 7.062556e-06 2.7076327e-05 2.7807793e-05 3.2677523e-05
2.6167116e-05 3.5772006e-05 4.571596e-05 8.782931e-06 3.7958645e-05 8.420289e-06 6.213642e-06 2.733944e-06
5.438645e-06 1.9275576e-05 7.973811e-06 8.899583e-06 1.6705155e-05 8.193475e-06 3.4782366e-07 9.193281e-06
1.0663526e-05 1.1502675e-05 2.2840157e-05 9.532186e-06 1.131182e-05 2.7098702e-05 5.216371e-06 1.3047769e-05
8.2265315e-06 1.4432244e-05 6.197464e-06 4.159348e-05 1.5366251e-05 2.7404169e-05 7.011538e-05 1.7562084e-05
2.5117075e-05 1.8355835e-05 4.8668553e-05 5.2983037e-06 5.222546e-05 4.2347667e-05 1.2899088e-05 3.2485663e-05
1.937002e-05 2.2672713e-05 3.3360313e-06 2.1801031e-06 3.1477088e-05 3.6244226e-05 0.00012703048 6.500657e-05
6.9118716e-05 0.000115568415 2.830254e-05 9.559093e-06 1.4432805e-05 3.039869e-05 1.0598277e-05 4.090233e-05
1.5304562e-05 2.0950634e-05 2.656232e-06 7.042557e-06 2.5434018e-05 1.4219353e-05 2.4520374e-05 4.0717066e-05
1.227103e-05 5.466547e-05 2.6088428e-05 2.6793175e-05 1.870045e-05 1.3794992e-05 1.1332526e-05 1.868942e-05
5.768404e-05 9.601684e-06 6.900881e-05 5.4294724e-05 1.5673464e-05 2.6489466e-05 2.7795151e-05 1.0499607e-05
4.8544494e-05 4.0644092e-05 5.338172e-06 3.9304377e-05 5.224472e-05 2.960276e-06 1.5703758e-05 6.0193423e-05
3.458951e-05 4.3459928e-05 8.6916174e-05 2.1706323e-05 7.9515725e-05 1.2845442e-05 9.433149e-05 4.044464e-06
9.600487e-05 0.00011020933 7.861976e-05 0.0003275152 7.9278965e-05 0.0001215402 0.00012542131 1.946881e-05
2.2722463e-05 1.2533662e-05 7.217581e-06 1.0822973e-05 2.7321104e-05 9.566201e-05 3.0789684e-05 4.150758e-05
5.2119452e-05 1.2187704e-05 2.2039958e-05 2.0825515e-05 1.0095934e-05 2.05056e-05 5.7628647e-05 9.133874e-06
2.2540351e-05 2.3088765e-05 8.597209e-06 1.9503632e-05 1.17533045e-05 4.3246007e-05 2.3549917e-05 3.8096445e-05
6.288548e-05 1.8774788e-05 1.9836276e-05 1.3875962e-05 1.1830885e-05 2.5140807e-05 5.0858933e-05 1.4356786e-05

exp_avg f4 [32]
00000000: e54f 9e3a 136a bdb9 943c 8739 1e88 083a
00000010: 0f66 6ab9 a01a d039 86e7 9538 dd0b 9d39
00000020: 3a3c a0b9 8474 4bb5 2854 ac39 7ee6 f339
00000030: 3052 47b8 7cba 58ba cf7b 0c3a ffd5 223a
00000040: 76b2 e3b9 b85c 44ba d2c5 3435 50cf 0dba
00000050: ed48 b939 5f72 9bb9 ddff 0a3a 3b3f 7c3a
00000060: e7b0 06b8 1e06 f1b7 a417 03b9 2271 8d38
00000070: 3b2a bdb9 191e 84b9 b187 8ab9 1b44 ae39
0.0012078254 -0.0003612792 0.0002579434 0.00052082713 -0.00022353999 0.0003969269 7.147998e-05 0.00029954212
-0.0003056245 -7.5792946e-07 0.00032869098 0.00046520302 -4.752184e-05 -0.00082675344 0.0005359025 0.00062116975
-0.00043429778 -0.0007490623 6.734309e-07 -0.0005409615 0.00035340284 -0.00029649117 0.0005302409 0.0009622459
-3.2112843e-05 -2.8732287e-05 -0.0001250194 6.7444766e-05 -0.00036080353 -0.00025199426 -0.0002642251 0.0003323861

exp_avg_sq f4 [32]
00000000: 628a 5837 4a13 9836 b2c6 ff35 0fb6 a736
00000010: e7a5 5835 6cda 5c36 9f9f dc35 48de 4135
00000020: ed4e dd35 5479 a832 4643 2736 4993 2b36
00000030: 616a a334 ee0f e236 cca1 8836 3847 5636
00000040: 3dd9 da35 1953 3a36 c4c8 5b33 b64b 9336
00000050: b2a6 3d36 860b 2936 2810 f136 6b36 b836
00000060: 78b9 3034 5575 3b35 7d9c e834 a1aa 2436
00000070: c69e 3336 f24c 0c36 8df4 3f35 228a a735
1.2906823e-05 4.5321985e-06 1.9056808e-06 4.9981822e-06 8.070769e-07 3.2909693e-06 1.6437733e-06 7.2221565e-07
1.6488754e-06 1.9612948e-08 2.4924097e-06 2.5566717e-06 3.0438517e-07 6.7371793e-06 4.0719515e-06 3.192994e-06
1.630549e-06 2.776453e-06 5.1172506e-08 4.3897553e-06 2.8260224e-06 2.518967e-06 7.1842405e-06 5.4899624e-06
1.645875e-07 6.983367e-07 4.3327228e-07 2.4537223e-06 2.6765497e-06 2.0906414e-06 7.1508913e-07 1.2482672e-06

exp_avg f4 [2, 32, 1]
00000000: 63a7 c739 c30b 843b b6c6 a03a 5720 18bb
00000010: a679 b33b b741 ea3a 06a2 b5ba a59f 223b
00000020: 82e4 b8ba 47df 3dbb 451f 0e3b 5b8d f03b
00000030: 8e7e 20ba c350 c73b d6e4 473b 6e5b 5dbb
00000040: 8431 4c3b fcae edbb 1dcb 383b d0bc c939
00000050: 090e 83bb ad54 86bb f4ad 09bb c1cb 003b
00000060: 33ca ccbb 133a 8e3b c718 c73b cad0 1d3b
00000070: 1b2e ed3b 4566 8a3a 8e59 5eba 1733 183b
00000080: e2d8 42ba 0856 a73b fd91 a93b 3adc 483b
00000090: cf35 f9ba a13e c03a c209 9d3a b8be 503b
000000a0: 06e7 023b 1548 593a e162 633b 9043 c43a
000000b0: b155 bc3a 0ee9 393b ce33 9e3a f124 bf3a
000000c0: f1ac 61bb 0fc3 6e3b 1e6f fc3b 4af6 c739
000000d0: 2294 e63a dad5 0b3a f42c 3bb9 849d 493b
000000e0: e0af eb3a 34f2 753b 1983 b8ba ffc7 943a
000000f0: 0d91 8f3b 389f dab9 cc88 f4b7 bbe6 86bb
0.0003808095 0.0040297224 0.0012266252 -0.0023212635 0.005477148 0.0017872368 -0.0013857491 0.0024814394
-0.0014106187 -0.0028972195 0.0021686119 0.0073410696 -0.0006122374 0.0060826256 0.0030501387 -0.003377642
0.0031157443 -0.007253526 0.0028197237 0.00038478384 -0.003999476 -0.0040994496 -0.0021008225 0.0019652697
-0.00624969 0.004340419 0.0060759517 0.0024080747 0.007238162 0.0010559043 -0.00084819726 0.0023223811
-0.0007432831 0.0051066913 0.005174874 0.0030648843 -0.0019013229 0.0014667102 0.0011981057 0.0031851958
0.0019974126 0.0008288634 0.0034696388 0.0014973748 0.00143688 0.0028367671 0.0012069882 0.0014583153
-0.0034435357 0.0036432182 0.007703676 0.00038139737 0.0017591754 0.00053342956 -0.00017850456 0.0030764053
0.0017981492 0.0037528398 -0.0014077156 0.0011351107 0.004381305 -0.00041698827 -2.9150768e-05 -0.0041168607

exp_avg_sq f4 [2, 32, 1]
00000000: 5153 f03b e093 7b3b 2a25 3e3b 9bdf 123c
00000010: efa9 2c3b 8d95 983a 35dd 473b cbf6 df3a
00000020: 0334 473a 6a37 f33a d517 ed3b eeb7 393b
00000030: e32b ed3a 0ee7 a53b 852b 7d3b d38c 8d3a
00000040: 1296 3e3b afac 0c3b 83a7 243b 37c1 613b
00000050: 2a25 1b3b 92c9 433b d464 853b ddbc 7a3b
00000060: 9bb1 af3b 8f82 923b fe53 153b 19b7 273b
00000070: 9b7e 7d3b 5b5e 483b d976 a63a ead0 b83b
00000080: 606b bb3b c31e 2c3b dacc 1a3b 3098 f53b
00000090: 5336 fd3a a453 693a 659e 283b 05eb af3a
000000a0: 38d8 1b3a 154b bf3a 5eb2 ab3b 8efe 083b
000000b0: 86c7 b53a 3297 863b 4654 3f3b bfce 4b3a
000000c0: 27a9 213b d918 d83a 5e20 fe3a ec5a 1c3b
000000d0: a6ca 033b 8ebe 363b f6f1 593b f2d4 463b
000000e0: edd7 a43b 9275 793b 2d70 ff3a 2e58 063b
000000f0: 1043 573b eb4b 193b c5b9 6f3a 0e6a 8b3b
0.007334151 0.00383877 0.002901385 0.0089644445 0.0026346406 0.0011641249 0.003049684 0.00170871
0.0007598998 0.0018555943 0.007235507 0.002833839 0.0018094744 0.0050629443 0.0038630676 0.0010799415
0.0029081148 0.0021465232 0.0025124259 0.003444744 0.0023673275 0.0029874784 0.0040708575 0.0038259544
0.0053617484 0.00447113 0.002278566 0.0025591312 0.00386802 0.0030573818 0.0012700214 0.005640139
0.005719587 0.0026263453 0.0023620636 0.007494949 0.0019318558 0.0008900708 0.0025729176 0.0013421482
0.0005945 0.001459452 0.005239769 0.002090368 0.0013868667 0.0041073794 0.0029194518 0.0007774643
0.0024667473 0.0016486897 0.0019388308 0.0023857905 0.0020109802 0.0027884576 0.0033255792 0.0030339328
0.005030623 0.0038064462 0.0019488387 0.0020499337 0.003284637 0.0023391198 0.0009144808 0.004254586

exp_avg f4 [2]
00000000: a8a6 03bc 3c21 3b3b
-0.008035339 0.0028553745

exp_avg_sq f4 [2]
00000000: 929c 003a bb08 7139
0.00049061433 0.00022986803
