Data/TCN Model Files/tcn_state-20251105-172242-d2fc8c.pt (torch, 51329 bytes, 6 tensors)

convs.0.weight f4 [32, 9, 9]
00000000: cbaf 4f3e 3636 af39 fea1 20bd e616 e8bc
00000010: 8485 c63c b939 8fbd 8bfc d53d e3fa 7bbd
00000020: 03f3 babb b2e2 b1bd 586d f9bb d95b 2a3d
00000030: b3a9 fcbd 01f7 d1bd 2523 2d3d 4987 873d
00000040: de80 bc3d 4a65 65bd a892 94bd 1b04 bdbd
00000050: 1463 5fbd f234 9e3d 4cb0 30bd 2abb 133e
00000060: 0490 e93d 8c91 a8bc dec0 e33d 4bcf c1bd
00000070: 76ef b5bd 3cb0 5abd 289b acbc 4640 8c3d
00000080: eafd 653d 60a6 3fbd e206 bbbc de47 843d
00000090: 95b0 5c3d dde5 03bd 841b 98bd 8884 c1bd
000000a0: 13b5 953b 2744 67bc dddc b53d e3e3 a7bd
000000b0: 5a73 82bb 5037 43bd a266 52bd defc f8bd
000000c0: 1b9b 95be 677b 2dbe b12e 21be 23e4 15be
000000d0: 3ea7 c4bd 3fe4 b1bd a970 d7bd d3df 22bd
000000e0: 5948 92bd 5462 81bd 60b1 5f3d 273e d6bd
000000f0: d4b2 d0bd 1863 793c df52 87bd 84c3 9d3d
00000100: 49df 9cbb adc6 873d 6433 db3c cb42 0a3d
00000110: f08b 293d ecd3 4d3d d127 2abd 9841 1fbd
00000120: 461f 553d 587a 043e fe15 8fbd d386 a83c
00000130: 2089 3e3d 3854 1cbc 7986 b7bd 2d8b 75bd
00000140: 4883 4fbd f8e3 a93c 99a4 f73d 9c75 cc3d
00000150: 9fda 3f3e 46ea a63c 8d78 0cbe 472a d5bd
00000160: 284c 62bd cec2 00be 889d 4c3d e48f d83b
00000170: 23e7 503d d4f8 c93c 5f22 c33d 53e0 d6bd
00000180: 328b d0bd 78cd 3abb 7a59 3bbd 5b78 37bd
00000190: 0a2a 1c3c 626a cdbd 536f ce3c 106e 82bd
000001a0: 7f39 973d 7453 18bd 572d 6ebd 704a 8dbc
000001b0: b7d1 7dbb 3a2f dc3d 96b7 b33d 2652 0b3e
000001c0: 96c9 063e 651f 153e 0978 093e 9b95 9fbc
000001d0: 5c4b 65bd 8e5f 783d ad7e c7bc 600a cd3d
000001e0: 5a4f 9e3d d9e4 41bc 6ef3 e83c 9af3 b4bc
000001f0: 513f 173d 288a a9bd 8448 773d 322e c93d
00000200: 9617 a03d 8fdf d23c c822 dcbb 7b79 39bc
00000210: 6486 8dbd b964 c0bd 1967 dfbd 6791 62bd
00000220: 0a8e 6a3d b6dc 763d 5332 d03d 9ffa 503d
00000230: 3d96 82bd 1304 bdbc 4912 023d 5e86 703b
00000240: dd12 a83c 5380 4dbd c4fc 4bbd 5071 57bd
00000250: 80ef 523d 3382 763d 6ceb 2f3b 4b5c be3d
00000260: b21b c43c 0bc5 933d 2240 abbd 2ca7 483d
00000270: dc9b 573d d4d4 6cbd c677 9e3c 4674 fd3d
00000280: 73e7 f5bc 57ee 493d 736e 913c c3aa 2a3e
00000290: bdd8 173e 3a4b 143e aaab ed3d 0424 06bd
000002a0: d67d 1f3e 0670 e13d 9afc 213e fc20 05bd
000002b0: f595 af3d 194d d43d 5fb9 82bd b658 1cbd
000002c0: 5142 64bd ff4a 3e3d 5317 d83d 5f7f 8bbd
000002d0: 6faa b3bc 5fae 50bd 6908 8d3c bf44 dd3d
000002e0: de7d 48bd fb6b 393c faa1 293b 737e 19bc
000002f0: 9c63 d43d cad1 7d3d 8765 d5bc dafb e33d
00000300: 0bd1 1e3b 4bbd 40bd 99cc e63d a119 863d
00000310: b4eb 58bd 7384 153e 051e 91bd d057 103c
00000320: f7ab de3d 6626 86bd f3e7 01b9 79e9 4c3b
00000330: 57d5 7ebd 0ba4 17bd c760 453d 25a8 5ebd
00000340: 074d 86bd 7879 94bd b167 a93d 88c9 08bd
00000350: 7074 cc3d 0b8b ecbb ead3 023e bb3d 263e
00000360: 3689 bbbc ce9f ffbc 5a57 49bd 7061 c3bd
00000370: f161 593c f8f3 5bbd 70da 3a3d e0fb 173d
00000380: 7a27 d6bd f646 883d b079 bcbd 083f 1fbd
00000390: 17d4 753c 3dd2 be3c f57b d8bc 3188 e93c
000003a0: b777 56bd dbc6 be3d f57e 7b3d a70a 07bd
000003b0: 88b9 013e 4700 57bd 0f53 fc3b 3c46 433d
000003c0: 7cf9 b4bd 47fd 903d 274f d5bd 98c1 9ebd
000003d0: a0be bdbd 8685 8abd 8ef0 e5bc 748d aa3d
000003e0: a14e aabd 6eba 923d 7bc2 48bd 6e64 bbbd
000003f0: 6e23 bc3d 25fe 05bd 1ba8 dabd 6e01 41bd
0.20281903 0.0003341899 -0.039216988 -0.028331231 0.024233587 -0.069934316 0.104485594 -0.06151856
-0.005705239 -0.08685817 -0.0076119117 0.0415915 -0.12337055 -0.102521904 0.042269845 0.066176005
0.09204267 -0.0560048 -0.07254535 -0.09229299 -0.054537848 0.07724942 -0.04313688 0.14426866
0.11404422 -0.020577215 0.11120771 -0.09463366 -0.08883564 -0.053390726 -0.021070078 0.06848197
0.056150354 -0.046789527 -0.02283043 0.0645902 0.05387934 -0.032201637 -0.07427123 -0.094491065
0.004568705 -0.01411537 0.08880017 -0.08197763 -0.003981036 -0.047660172 -0.05136741 -0.121576056
-0.292199 -0.16941606 -0.15740468 -0.14637809 -0.096022114 -0.086861126 -0.10519535 -0.039764237
-0.071427055 -0.06317583 0.054612517 -0.10461073 -0.10190359 0.01522138 -0.06607603 0.07703307
-0.00478736 0.06629691 0.026757903 0.033755105 0.04139322 0.050250933 -0.041541878 -0.038880914
0.052031778 0.12937295 -0.069866166 0.020572102 0.04651749 -0.009541564 -0.089611955 -0.05994718
-0.05066231 0.020738587 0.120919414 0.0998337 0.18735741 0.020375382 -0.13717861 -0.104084544
-0.05524841 -0.12574312 0.04995492 0.00660895 0.05100168 0.024654783 0.0952804 -0.10492005
-0.101827994 -0.0028503817 -0.04573963 -0.044792514 0.009531507 -0.100300565 0.025199568 -0.06368649
0.073840134 -0.037188962 -0.05814871 -0.017247409 -0.0038729736 0.10751195 0.087752506 0.13605556
0.13162836 0.14562757 0.13424696 -0.019480517 -0.05598007 0.060638003 -0.024352396 0.100117445
0.07729979 -0.011834347 0.028436389 -0.022088815 0.036925618 -0.08278304 0.06037189 0.09823264
0.07816999 0.025741367 -0.0067180134 -0.011320467 -0.069103986 -0.09394211 -0.10908336 -0.055314448
0.057264365 0.06026908 0.101658486 0.05102026 -0.06376312 -0.023073232 0.03175572 0.0036701183
0.020516807 -0.050171208 -0.049801603 -0.052598298 0.051497936 0.06018276 0.0026843203 0.09294947
0.023938987 0.07215317 -0.08361842 0.048987553 0.052638873 -0.057820156 0.019344222 0.12375693
-0.03001759 0.049299564 0.017752862 0.16666703 0.14828773 0.14481822 0.11605008 -0.03274919
0.15575346 0.11007695 0.15819016 -0.03250216 0.08573524 0.10366268 -0.06383013 -0.03817054
-0.055727307 0.04645824 0.10551324 -0.068114035 -0.021931855 -0.050947543 0.017215924 0.10804128
-0.04894816 0.011317248 0.00258839 -0.009368527 0.103705615 0.06196765 -0.026049389 0.11132021
0.0024233486 -0.047055524 0.11269493 0.06547857 -0.05295916 0.14601307 -0.07085804 0.008809999
0.108726434 -0.06550293 -0.00012388806 0.003126709 -0.062215175 -0.037021678 0.048187997 -0.054359574
-0.065576605 -0.07249731 0.08271731 -0.03339532 0.09983146 -0.0072187237 0.12776151 0.16234486
-0.022892576 -0.03120413 -0.04915557 -0.09540069 0.01326798 -0.053699464 0.045618474 0.03710544
-0.10456748 0.0665416 -0.092028975 -0.03887847 0.015004179 0.023293609 -0.026426295 0.028507324
-0.052360263 0.093152724 0.061400373 -0.032969143 0.12668431 -0.0524905 0.007700331 0.047674403
-0.08836648 0.07079559 -0.10415488 -0.07751769 -0.092648745 -0.06763749 -0.028068807 0.08327761
-0.083157785 0.07164465 -0.049013596 -0.09150015 0.09186445 -0.032713074 -0.10676595 -0.047120504

convs.0.bias f4 [32]
00000000: 868d 253e e467 7f3d 9089 e1bb 2c92 3dbd
00000010: a395 2fbc dc93 3b3d 1acf 9b3c f1e7 713c
00000020: 28fb dfbd 698a 253e 1860 89bd dd97 8e3d
00000030: f186 b83d e6fa b0bc 9a14 473d d4b3 db3d
00000040: ff57 0abe 3429 df3d fad5 923c eaac 53be
00000050: 87a7 313d 4a2a a63d 9ceb d3bc 2914 c33d
00000060: 6263 4fbd 132b 833e aad6 5c3d 3238 673e
00000070: 008d 9ebd 1c62 523d 2aa7 84bd f512 8e3d
0.16167268 0.062354937 -0.006882854 -0.04628198 -0.0107168285 0.045795307 0.019019652 0.014764772
-0.10936576 0.1616608 -0.067077816 0.06962559 0.09010113 -0.021604013 0.04860363 0.10727659
-0.1351013 0.10896531 0.017924298 -0.2067143 0.043372657 0.08113535 -0.025869183 0.095253296
-0.05063189 0.256188 0.053915657 0.2258003 -0.07741737 0.051363096 -0.064771965 0.069372095

convs.1.weight f4 [32, 32, 9]
00000000: 1cdd 653c 2873 a33b dd8c 4e3d 99c3 4f3d
00000010: 990c 343c 9e50 a4bc efb1 b8bd fc13 a4bd
00000020: 10d2 e8bd 596c 393d 3c0a b9bc 32fe d9bc
00000030: 5a4d a2bc 08b2 203d ecc8 6abd 1449 5abd
00000040: f7cd fbbc 26b1 1abd 5d6b 5abc 83ad 413d
00000050: 6cc9 4fbd 76c0 af3c f892 69bd 0126 e0ba
00000060: 367d 1e3d a93c 243d b831 f33c a851 303c
00000070: 2685 b23c 06f7 873c e368 483b b36e edb9
00000080: d3b4 f2bc dbf6 32bd 9227 01bd 6246 b53a
00000090: f34a 30bd a0ac 803d f984 45bd b207 40bd
000000a0: fe09 813d 68d5 2f3d 66f1 50bd b68f b3bd
000000b0: 810c 79bd 7f92 a739 68dd 793d 2323 853d
000000c0: 8346 143c 1323 ee3c b7d8 2abc 976d 3b3d
000000d0: e514 a7bc 2b09 92bc d514 32bc ffe3 03bc
000000e0: 5b06 41bd 779e 0c3d 36d3 34bd 821c 1fbc
000000f0: e192 4e3c 94b2 223d df17 87bd 3326 87bd
00000100: 70fb 30bd 1c20 dbbb 971e bc3b bf4a 56bc
00000110: 84ed 92bc 011c 143c ce59 3cbd f2f7 553d
00000120: 7842 9c3c 0c12 5ebc 35a7 d4bb 7451 0ebd
00000130: fe7b 0f3c b620 3c3d 5081 193d 327d 3a3d
00000140: 4d6e 823c 9694 e6bc e917 a6ba bc3a 1bbc
00000150: 4def 4b3b 274e 693d 40f9 1e3d 07d7 103b
00000160: d0a0 5ebd f0be 99bd 7739 9e3b 03e6 2abc
00000170: 96a6 6a3d 7736 f2bc 1b57 8bbd 8f43 da3c
00000180: bf9b cdbb 8e3a 1b3d 2c90 303d bff9 873d
00000190: bc85 9a3c 116a e1bc dbd6 e7bc e864 fcbc
000001a0: 51bf 8c3d 5404 8b3d 2c0e 48bd e4b9 ff3b
000001b0: fc47 b33c ec7c b3bb 21e1 a53a 4170 973c
000001c0: 840f 8f3d ae0a 033c ea10 38bc c726 043d
000001d0: 8dcd e03d 78f4 7bbd 3524 17bd 8d72 04bc
000001e0: 5381 50bd 337b c83d a4db 773d 859e 2f3d
000001f0: 2762 803d 90ef e13d bd7c 8e3c d47d ad3c
00000200: cffa 3b3d 1c86 e9bc d6af e8bc 1b64 8cbd
00000210: c791 0d3b 5d97 10bd 379d d3bd 5ff4 9d3d
00000220: 673e 593d 83e4 98bc 1f6b 773d 97c6 51bd
00000230: 6a87 8fbc 350a a9bc 2ad6 043d a4b2 183d
00000240: c05b b4bd 543a 3ebc 8712 6a3c e9eb 543a
00000250: 65fe 143d e35e 06bc 8c55 393d 00c0 8abd
00000260: 9afe 3fbc c0be ddbc 7186 7bbd 794b 3ebd
00000270: 8b4e 233c 52c7 853d 3562 43bb a6bb 02bc
00000280: 042c f13c 421e 593d dc72 e13c 9de7 86bc
00000290: a458 973d 4723 29bd dac0 573d 1375 6abc
000002a0: d162 cf3c fe66 2c3d 9432 853d 0f6d 0abd
000002b0: 2540 503c 21fc f0bb aa91 513d d903 2c3c
000002c0: c80e efbb e2ba 86bd 72c8 abbd d273 a7bd
000002d0: 33f8 4fbc 93e1 d63b 3b9f 7e3b 8cf4 f23a
000002e0: 0aed 7ebd 4e6b 83bc bb06 64bd 9941 a13c
000002f0: abb8 f13d e710 8f3c 16f2 e53c 27b7 183c
00000300: 04f9 e7bc 2833 323d 4bab 103c 078a 4e3d
00000310: 8b6b 39bd 9482 233d 7cca 9c3d e823 803c
00000320: a729 543c cb24 d8bb 806e a2bd c3a4 d5bc
00000330: 4772 503d efb7 e4bc 9a4e 82bc d662 033d
00000340: 1a7d 703d d09d 00bc 13bb 41bc e542 2ebd
00000350: 3d26 023d f05e 2dbc 7b95 f53c a511 80bd
00000360: 2858 113c 12e5 323d 8aa8 5fbd 0326 6d3d
00000370: 658a 5ebd 7376 663d 540f e3bc b962 95bd
00000380: 9d00 b1bd 8177 3b3d 7765 c53a 2045 333d
00000390: 9650 053c f81f 11bd 0f12 38bd e272 ea3a
000003a0: bceb cb3c 78cd 59bd 353a 9f3d 7ba0 15bd
000003b0: a291 ad3c 12f8 673c aa79 d03c c29f 61bd
000003c0: e3e3 fcbc 2c50 4ebd 61e8 e9bd fc27 0d3e
000003d0: e768 c03d 56c0 683d c523 27bc f393 6ebc
000003e0: f2eb 073d 1ef6 c1bc 4cdb 89bd 7825 95bd
000003f0: b39c 9ebc b75f 85bb c8e5 5abc f576 95bd
0.014029767 0.004988093 0.050427306 0.050723646 0.010989332 -0.020057973 -0.09018313 -0.08011624
-0.11368191 0.045269344 -0.022587888 -0.026610468 -0.019812275 0.039232284 -0.05732052 -0.05329235
-0.03073786 -0.0377666 -0.013331261 0.047284614 -0.0507292 0.021454077 -0.057024926 -0.001710117
0.03869363 0.040096913 0.029686794 0.010761656 0.021792006 0.016597282 0.0030580095 -0.0004528664
-0.02962724 -0.04369245 -0.031531878 0.001383018 -0.043040227 0.062829256 -0.048222516 -0.04688234
0.06300734 0.04292813 -0.051011465 -0.08767645 -0.06080294 0.0003196187 0.061002165 0.065008424
0.009050014 0.029069459 -0.010427645 0.04575881 -0.020395705 -0.017826637 -0.010869225 -0.008049964
-0.0471252 0.03433081 -0.04414674 -0.009711387 0.012608261 0.039721087 -0.0659635 -0.06599083
-0.04320854 -0.0066871773 0.0057409513 -0.013079344 -0.017935522 0.00903988 -0.045984082 0.052238412
0.019074664 -0.013554107 -0.006489659 -0.03474565 0.008757589 0.045929633 0.037476838 0.04552955
0.015921736 -0.028147023 -0.0012671921 -0.009474453 0.0031117976 0.056959298 0.038811922 0.0022100823
-0.05435258 -0.075071216 0.0048286277 -0.010430816 0.057287775 -0.029566986 -0.068037234 0.026643543
-0.00627467 0.03789764 0.043106243 0.06639432 0.018862598 -0.027516397 -0.028300693 -0.030809835
0.06872428 0.06787935 -0.04884164 0.0078041423 0.02188491 -0.0054775383 0.0012655595 0.018486144
0.06985381 0.007998152 -0.011234501 0.032263543 0.10976706 -0.06151244 -0.036899764 -0.008083952
-0.050904583 0.097891234 0.0605122 0.042875785 0.06268721 0.11032021 0.017393464 0.021178164
0.045893487 -0.028506331 -0.028404158 -0.06855031 0.0021601783 -0.0353006 -0.10332721 0.07712626
0.053038027 -0.01866365 0.060404893 -0.05121478 -0.017520625 -0.02063475 0.032430805 0.03727974
-0.088065624 -0.011610586 0.014286644 0.00081223116 0.036375422 -0.008201334 0.0452476 -0.06774902
-0.011718417 -0.027068496 -0.06140751 -0.046458695 0.009967457 0.06532158 -0.0029813175 -0.007979309
0.029439934 0.05300737 0.02752059 -0.016467864 0.07389954 -0.04129341 0.052674152 -0.014310139
0.025315674 0.04209041 0.06503788 -0.033795413 0.012710606 -0.007354275 0.051164307 0.010498964
-0.0072954632 -0.06578614 -0.08387841 -0.08176388 -0.012693453 0.0065576523 0.0038852233 0.0018536015
-0.062237777 -0.016042378 -0.05567048 0.0196846 0.11802801 0.017464114 0.028069537 0.009321011
-0.028316982 0.043505818 0.008829902 0.050424602 -0.045268577 0.03991945 0.07655808 0.015642121
0.012949384 -0.006596183 -0.079312325 -0.026079541 0.050890233 -0.027919738 -0.01590662 0.03207668
0.058713056 -0.007850125 -0.011824387 -0.042544264 0.031774748 -0.010581717 0.029978504 -0.062533654
0.008871116 0.04367549 -0.05460409 0.05789758 -0.054331202 0.056265306 -0.02771727 -0.072942205
-0.08642695 0.045768265 0.0015060146 0.043767095 0.008136889 -0.03543088 -0.044939097 0.0017887021
0.02489268 -0.053174466 0.07774774 -0.03653 0.021187607 0.014158266 0.025448639 -0.055083998
-0.030870384 -0.050369427 -0.11421276 0.13784784 0.093950085 0.05682405 -0.010201399 -0.014561641
0.033184 -0.023676928 -0.06731281 -0.07282537 -0.01936183 -0.004070248 -0.013360448 -0.0729808

convs.1.bias f4 [32]
00000000: 9037 8a3d 5371 843d b22b 893d 90cf aebc
00000010: 8c1b 803e e0ee 8b3e ff76 163d 50f7 0d3e
00000020: e154 883d 9a13 e5bc b0d8 593d 57bf b13d
00000030: 365b 3f3e a799 97bd 80a2 cc3b 3281 363e
00000040: 84d0 443d 20ad ef3d 1ef2 ea3a 8fad 3f3d
00000050: 5096 b73c 28e8 f53d 78db 073d 6400 173e
00000060: 16a2 fa3d 983a 153e b81c 69bc bd9a 903e
00000070: 08c7 2d3d e067 863d 8bd1 35bd 4433 8a3e
0.06748879 0.064669274 0.06697787 -0.021339208 0.25021017 0.27330685 0.036734577 0.13863873
0.06656814 -0.027963448 0.053185165 0.08679073 0.18687138 -0.07402354 0.0062449574 0.17822722
0.04805042 0.11702943 0.001792494 0.046796378 0.022410542 0.12007171 0.033168286 0.14746243
0.12237947 0.14573133 -0.0142280385 0.28243056 0.04242614 0.06562781 -0.04438929 0.26992238

head.weight f4 [2, 32, 1]
00000000: eaa2 0fbe 6069 013e a45e cfbb ee2f 55bd
00000010: b779 d43d 4f41 f0bd 63a1 193d ddd5 70bd
00000020: c683 d23d aced dcbc 301b 25bd f232 eabd
00000030: 4505 a83b 8e40 0e3e 3b46 06be d707 07be
00000040: 65c1 d13d fab5 c83d f1c2 763d 54b1 183e
00000050: 0c8d 8ebd 9122 1f3e e8d4 bbbd c8e8 36be
00000060: 44f7 583c c942 b8bc ecc8 c73d 2cb7 d2bd
00000070: c551 e43d 8a6b 1c3e 867d c23d 85f6 14be
00000080: e6d2 103e 35af b1bd d6e3 e83d d940 f43d
00000090: 9d5c 14be 5df2 13be 4fd8 123e e2b0 1d3d
000000a0: ed08 c43d 4086 6bbd 5d36 c43d 524d 62bc
000000b0: e5ce cabd fb4f d3bd aae7 a9bc e5da 6cbc
000000c0: 6bb3 143d cea6 c8bd e0d9 4e3d f860 073e
000000d0: 4b2f da3d 9fff d1bd 1203 163e 96d3 4bbd
000000e0: 812a 53bd f345 8abd 95c3 87bd 00e7 20be
000000f0: 1e06 c43d cb38 5abd 061d 52b9 67bf 05be
-0.1402699 0.12637854 -0.0063284207 -0.052047662 0.10374778 -0.117312066 0.037507426 -0.058797706
0.1027904 -0.0269688 -0.04030913 -0.11435498 0.0051275813 0.13891813 -0.13112728 -0.13186584
0.10241965 0.09800334 0.060244504 0.14911395 -0.06960496 0.1554053 -0.09171468 -0.17862236
0.0132425465 -0.022492783 0.0975512 -0.102888435 0.11148409 0.15275398 0.09496598 -0.14547165
0.14142951 -0.08675996 0.11371581 0.11926431 -0.14488454 -0.14447923 0.14340328 0.038498767
0.09572015 -0.057501078 0.095806815 -0.01381238 -0.09902743 -0.103179894 -0.020740349 -0.014456485
0.03630392 -0.097974405 0.05050075 0.13220584 0.10653552 -0.10253834 0.14649609 -0.04976233
-0.051554207 -0.06751623 -0.06629101 -0.1571312 0.09571479 -0.05327682 -0.00020037973 -0.13061295

head.bias f4 [2]
00000000: e0fe cc3c e5bd 833c
0.025023878 0.01608176
